…
 [[0.2901961  0.23137257 0.83921576]
  [0.2901961  0.23137257 0.83921576]
  [0.2901961  0.23137257 0.83921576]
  ...
  [… ...
  [… ...
  [0.2901961  0.23137257 0.83921576]
  [0.2901961  0.23137257 0.83921576]
  [0.2901961  0.23137257 0.83921576]]], shape=(200, 200, 3), dtype=float32)

Creating the model


Completed the model creation process, onto compiling the model
Model: "sequential"
_________________________________________________________________
 Layer (type)                Output Shape              Param #   
=================================================================
 rescaling_1 (Rescaling)     (None, 200, 200, 3)       0         
                                                                 
 conv2d (Conv2D)             (None, 200, 200, 16)      448       
                                                                 
 max_pooling2d (MaxPooling2D  (None, 100, 100, 16)     0         
 )                                                               
                                                                 
 conv2d_1 (Conv2D)           (None, 100, 100, 32)      4640      
                                                                 
 max_pooling2d_1 (MaxPooling  (None, 50, 50, 32)       0         
 2D)                                                             
                                                                 
 conv2d_2 (Conv2D)           (None, 50, 50, 64)        18496     
                                                                 
 max_pooling2d_2 (MaxPooling  (None, 25, 25, 64)       0         
 2D)                                                             
                                                                 
 flatten (Flatten)           (None, 40000)             0         
                                                                 
 dense (Dense)               (None, 128)               5120128   
                                                                 
 dense_1 (Dense)             (None, 9)                 1161      
                                                                 
=================================================================
Total params: 5,144,873
Trainable params: 5,144,873
Non-trainable params: 0
_________________________________________________________________

Beginning the data augmentation task

Adding the dropout to the new 'drop_model' object

Compiling the drop_model network
Model: "sequential_2"
_________________________________________________________________
 Layer (type)                Output Shape              Param #   
=================================================================
 sequential_1 (Sequential)   (None, 200, 200, 3)       0         
                                                                 
 rescaling_2 (Rescaling)     (None, 200, 200, 3)       0         
                                                                 
 conv2d_3 (Conv2D)           (None, 200, 200, 16)      448       
                                                                 
 max_pooling2d_3 (MaxPooling  (None, 100, 100, 16)     0         
 2D)                                                             
                                                                 
 conv2d_4 (Conv2D)           (None, 100, 100, 32)      4640      
                                                                 
 max_pooling2d_4 (MaxPooling  (None, 50, 50, 32)       0         
 2D)                                                             
                                                                 
 conv2d_5 (Conv2D)           (None, 50, 50, 64)        18496     
                                                                 
 max_pooling2d_5 (MaxPooling  (None, 25, 25, 64)       0         
 2D)                                                             
                                                                 
 dropout (Dropout)           (None, 25, 25, 64)        0         
                                                                 
 flatten_1 (Flatten)         (None, 40000)             0         
                                                                 
 dense_2 (Dense)             (None, 128)               5120128   
                                                                 
 outputs (Dense)             (None, 9)                 1161      
                                                                 
=================================================================
Total params: 5,144,873
Trainable params: 5,144,873
Non-trainable params: 0
_________________________________________________________________


Beginning the training on drop_model

Epoch 1/10
   1/2190 [..............................] - ETA: 1:16:22 - loss: 2
…
